Model: "model_2"
__________________________________________________________________________________________________
Layer (type)                    Output Shape         Param #     Connected to                     
==================================================================================================
state (InputLayer)              (None, 8, 8, 8)      0                                            
__________________________________________________________________________________________________
conv2d_1 (Conv2D)               (None, 8, 8, 4)      36          state[0][0]                      
__________________________________________________________________________________________________
conv2d_2 (Conv2D)               (None, 7, 7, 8)      264         state[0][0]                      
__________________________________________________________________________________________________
conv2d_3 (Conv2D)               (None, 3, 3, 12)     876         state[0][0]                      
__________________________________________________________________________________________________
conv2d_4 (Conv2D)               (None, 3, 3, 16)     2064        state[0][0]                      
__________________________________________________________________________________________________
conv2d_5 (Conv2D)               (None, 1, 1, 20)     10260       state[0][0]                      
__________________________________________________________________________________________________
conv2d_6 (Conv2D)               (None, 8, 1, 3)      195         state[0][0]                      
__________________________________________________________________________________________________
conv2d_7 (Conv2D)               (None, 1, 8, 3)      195         state[0][0]                      
__________________________________________________________________________________________________
flatten_1 (Flatten)             (None, 256)          0           conv2d_1[0][0]                   
__________________________________________________________________________________________________
flatten_2 (Flatten)             (None, 392)          0           conv2d_2[0][0]                   
__________________________________________________________________________________________________
flatten_3 (Flatten)             (None, 108)          0           conv2d_3[0][0]                   
__________________________________________________________________________________________________
flatten_4 (Flatten)             (None, 144)          0           conv2d_4[0][0]                   
__________________________________________________________________________________________________
flatten_5 (Flatten)             (None, 20)           0           conv2d_5[0][0]                   
__________________________________________________________________________________________________
flatten_6 (Flatten)             (None, 24)           0           conv2d_6[0][0]                   
__________________________________________________________________________________________________
flatten_7 (Flatten)             (None, 24)           0           conv2d_7[0][0]                   
__________________________________________________________________________________________________
dense_bass (Concatenate)        (None, 968)          0           flatten_1[0][0]                  
                                                                 flatten_2[0][0]                  
                                                                 flatten_3[0][0]                  
                                                                 flatten_4[0][0]                  
                                                                 flatten_5[0][0]                  
                                                                 flatten_6[0][0]                  
                                                                 flatten_7[0][0]                  
__________________________________________________________________________________________________
dense_1 (Dense)                 (None, 256)          248064      dense_bass[0][0]                 
__________________________________________________________________________________________________
dense_2 (Dense)                 (None, 128)          32896       dense_1[0][0]                    
__________________________________________________________________________________________________
dense_3 (Dense)                 (None, 56)           7224        dense_2[0][0]                    
__________________________________________________________________________________________________
dense_4 (Dense)                 (None, 64)           3648        dense_3[0][0]                    
__________________________________________________________________________________________________
dense_5 (Dense)                 (None, 32)           2080        dense_4[0][0]                    
__________________________________________________________________________________________________
dense_6 (Dense)                 (None, 1)            33          dense_5[0][0]                    
==================================================================================================
Total params: 307,835
Trainable params: 307,835
Non-trainable params: 0
__________________________________________________________________________________________________
iter 0
Model: "model_2"
__________________________________________________________________________________________________
Layer (type)                    Output Shape         Param #     Connected to                     
==================================================================================================
state (InputLayer)              (None, 8, 8, 8)      0                                            
__________________________________________________________________________________________________
conv2d_1 (Conv2D)               (None, 8, 8, 4)      36          state[0][0]                      
__________________________________________________________________________________________________
conv2d_2 (Conv2D)               (None, 7, 7, 8)      264         state[0][0]                      
__________________________________________________________________________________________________
conv2d_3 (Conv2D)               (None, 3, 3, 12)     876         state[0][0]                      
__________________________________________________________________________________________________
conv2d_4 (Conv2D)               (None, 3, 3, 16)     2064        state[0][0]                      
__________________________________________________________________________________________________
conv2d_5 (Conv2D)               (None, 1, 1, 20)     10260       state[0][0]                      
__________________________________________________________________________________________________
conv2d_6 (Conv2D)               (None, 8, 1, 3)      195         state[0][0]                      
__________________________________________________________________________________________________
conv2d_7 (Conv2D)               (None, 1, 8, 3)      195         state[0][0]                      
__________________________________________________________________________________________________
flatten_1 (Flatten)             (None, 256)          0           conv2d_1[0][0]                   
__________________________________________________________________________________________________
flatten_2 (Flatten)             (None, 392)          0           conv2d_2[0][0]                   
__________________________________________________________________________________________________
flatten_3 (Flatten)             (None, 108)          0           conv2d_3[0][0]                   
__________________________________________________________________________________________________
flatten_4 (Flatten)             (None, 144)          0           conv2d_4[0][0]                   
__________________________________________________________________________________________________
flatten_5 (Flatten)             (None, 20)           0           conv2d_5[0][0]                   
__________________________________________________________________________________________________
flatten_6 (Flatten)             (None, 24)           0           conv2d_6[0][0]                   
__________________________________________________________________________________________________
flatten_7 (Flatten)             (None, 24)           0           conv2d_7[0][0]                   
__________________________________________________________________________________________________
dense_bass (Concatenate)        (None, 968)          0           flatten_1[0][0]                  
                                                                 flatten_2[0][0]                  
                                                                 flatten_3[0][0]                  
                                                                 flatten_4[0][0]                  
                                                                 flatten_5[0][0]                  
                                                                 flatten_6[0][0]                  
                                                                 flatten_7[0][0]                  
__________________________________________________________________________________________________
dense_1 (Dense)                 (None, 256)          248064      dense_bass[0][0]                 
__________________________________________________________________________________________________
dense_2 (Dense)                 (None, 128)          32896       dense_1[0][0]                    
__________________________________________________________________________________________________
dense_3 (Dense)                 (None, 56)           7224        dense_2[0][0]                    
__________________________________________________________________________________________________
dense_4 (Dense)                 (None, 64)           3648        dense_3[0][0]                    
__________________________________________________________________________________________________
dense_5 (Dense)                 (None, 32)           2080        dense_4[0][0]                    
__________________________________________________________________________________________________
dense_6 (Dense)                 (None, 1)            33          dense_5[0][0]                    
==================================================================================================
Total params: 307,835
Trainable params: 307,835
Non-trainable params: 0
__________________________________________________________________________________________________
iter 0
